model/model.pth (torch, 17216 bytes, 4 tensors)

linear1.weight f4 [256, 11]
00000000: 8afc 1fbe 87fb cebc e83f 093f 3446 e93e
00000010: aeca 7e3e 409e cc3e 1ed3 ffbc 6a7a 5fbe
00000020: b699 d3bd 24c0 e8bd 8ce1 21bf 8e21 38be
00000030: 8b5c 243c 2cae 633e 2e61 b53e 6432 5e3e
00000040: 12c8 9b3e ec65 7bbd 141d 293a 4bc5 4a3d
00000050: 8030 40bd e905 fcbe cf81 e9be 0dab f63e
00000060: 4d22 ebbc 5a04 55be e870 943e cadc 3dbd
00000070: 7068 453e bfac 0ebf 37ab ebbd b152 f63a
00000080: 5553 2e3d 76fb 1ebe 6dd2 673d f903 08be
00000090: a4b4 9f3d b8da a43d e22f 18be 746e 0b3e
000000a0: 9d8d d6bb 863b 37be 068f 97bd 9a3f e8bc
000000b0: f940 56bd b742 a33e 6e17 123e c437 503e
000000c0: 9732 403d 9824 b0bd 27c0 0b3e ffcc 743c
000000d0: 7838 45be ada4 fe3d 33f8 e4bd d492 cebe
000000e0: 2f0d 1d3e 4834 0b3f 92f0 9c3d 8c6f 073e
000000f0: b931 b0be cabd 05bf 9573 ae3e 861c 61be
00000100: 03a5 20bc cd2b c4bd fc5c d83e 0c11 f23c
00000110: c3c8 89be 6c29 933d adcb fcbc 23bc d1be
00000120: b996 3cbd ea77 8fbe a519 2bbe 3539 c63e
00000130: 7625 3d3c e8b0 ad3d a846 2dbe eb63 b8be
00000140: f068 8abe 9c2a ab3e 0526 9dbe a377 6ebe
00000150: c211 04bf 3830 263d 787c f93c 4ebe c1be
00000160: 58c9 0b3f 0513 0f3f ef86 27bf e48f 91be
00000170: 827d 02be c366 f3bd 7238 923d 5674 263e
00000180: d44f a43e 5fa5 313e ee24 7abe 9887 d73d
00000190: 1661 113f 6b08 b7be 6e34 41be e391 9f3e
000001a0: 8ca1 9d3c 9b23 0abe 984b bc3e d95e 51be
000001b0: 011d 743e 620c 303e b172 1abe a07d b3bc
000001c0: 083d 233d 9091 3cbd 2807 61be 50f6 40bd
000001d0: 6926 81be 0006 04ba 3001 78be bbfc 13be
000001e0: 2c92 61be f960 063e 0771 a4be 5ede 1f3d
000001f0: 02fc b13d dee6 813e 2c6e 843d 6b01 a9be
00000200: b10b ddbe 8e0e 6cbe 3abe 233e c612 76be
00000210: d759 dc3e 8881 863e e85d 1b3e 8aea 96be
00000220: 33ec d3bd e68d 133e bfb8 79be f63e 753e
00000230: abee 59be 47bd 6f3e 59f8 a83d 412c 8b3d
00000240: ef09 c5be 221b b5bd dce6 cabe 6b2e 023f
00000250: eb48 e2bc 4ccb a2be b65c ccbe e474 c03e
00000260: 6843 c2be 6075 95be ec88 62bd 6597 85be
00000270: 09de 26be 556f 0ebf 19c5 21bd d0a1 663d
00000280: cc2d 0dbf 2b9e 08bf d0ea 0bbf 9fda 143e
00000290: 6a44 f8be 5d01 153e 125d 843e cd4a 1b3e
000002a0: 86fd 65be 99e0 82be cb12 bcbc ebfb 753d
000002b0: 9cf3 0b3e 4db4 1ebe fb37 91bc bf0d a7bd
000002c0: e278 d53d 0d83 15be 978e 9e3e d5d8 6bbe
000002d0: cd2c 3fbe 7624 e9be f364 a33d d0d7 93be
000002e0: 5520 45be e875 7fbc 4360 2bbc d285 a0be
000002f0: a418 103e 4282 273f 3ab4 4b3e 65e3 eabc
00000300: d7df d5bd df99 f3be 8c01 8a3d ab10 8e3e
00000310: a970 ad3c d077 9ebe ec5d e9bd c8ac a13e
00000320: 1b36 ef3e db0d 99be fb36 b9bb 8926 5ebe
00000330: da11 83be 9083 a33e 4071 953e 0198 b73e
00000340: a167 d83e 2782 c7bd fb7b 51bd 315a 9d3e
00000350: 4ec2 963e d6ee 80be 950c d3be c201 073e
00000360: 3e79 bcbe 3069 1bbe e6c8 ee3e 15f6 83be
00000370: dc20 023c af25 e3be e195 0e3f 156d e5be
00000380: f64b c53c b9c9 683c e3a7 31be ff99 803e
00000390: b88e 773c 627e efbd 280d 373e 2f44 003f
000003a0: 83d3 d0be 3932 b53e 2c26 763e f5af 1a3e
000003b0: ff6d b93e b49e afbe 7c9f d0bd 18c2 0f3e
000003c0: 5eb1 66be e17e 033f 694e e23d b654 4abd
000003d0: b905 d43d a66f fd3d a233 7ebe 8dab 4dbd
000003e0: f759 1d3e e3cd 92be 221a 633e 794f 623d
000003f0: 25ec 84be 95b9 2d3e e250 89bd bcd9 7f3a
-0.1562368 -0.025266422 0.5361314 0.45561373 0.24882004 0.39964485 -0.031228598 -0.21824041
-0.103320524 -0.11364773 -0.6323478 -0.1798155 0.01003183 0.2223441 0.35425705 0.2169891
0.3042608 -0.061376497 0.00064511714 0.04950456 -0.046921253 -0.4922326 -0.4560685 0.48177376
-0.02870288 -0.20802441 0.2899239 -0.04635314 0.19278121 -0.5573234 -0.11507266 0.0018792955
0.04255994 -0.15525612 0.056597162 -0.13282765 0.07798126 0.0804953 -0.14862016 0.13616353
-0.0065476433 -0.178938 -0.074003264 -0.02835064 -0.052308057 0.31886837 0.1426675 0.20333773
0.046923246 -0.0860073 0.13647519 0.014941453 -0.19259822 0.12433753 -0.11180153 -0.40346396
0.1533706 0.5437665 0.07663073 0.13226146 -0.34412935 -0.5224272 0.34072557 -0.21983537
-0.009804967 -0.09578667 0.4225844 0.029549144 -0.26910982 0.07185635 -0.030858839 -0.4096385
-0.046042178 -0.28021175 -0.16709001 0.3871552 0.011544576 0.08481008 -0.16921484 -0.3601373
-0.27033186 0.33430946 -0.3069307 -0.23287825 -0.51589596 0.04057333 0.03045486 -0.37840503
0.546041 0.55888397 -0.6544027 -0.28430092 -0.1274319 -0.118848346 0.07139672 0.16255316
0.32092154 0.1734824 -0.2442815 0.10523909 0.56788766 -0.3574861 -0.18867657 0.3116599
0.01924207 -0.13490145 0.36776423 -0.20446338 0.23839189 0.17192224 -0.15082814 -0.021910489
0.039853126 -0.046037257 -0.21975386 -0.047109902 -0.25224617 -0.00050362945 -0.24219203 -0.14451878
-0.22028416 0.1312293 -0.32117483 0.039030425 0.08690645 0.2537145 0.06466326 -0.33008894
-0.43172982 -0.23052427 0.15990534 -0.24030599 0.43037292 0.262707 0.15172541 -0.29475814
-0.10347786 0.14409599 -0.24386881 0.23949799 -0.21282451 0.23412047 0.082504936 0.0679555
-0.3848414 -0.08843066 -0.39629257 0.5085208 -0.02762266 -0.31795728 -0.39914483 0.3758918
-0.37942052 -0.29191113 -0.05530636 -0.26092067 -0.16295637 -0.5563863 -0.039494608 0.05630666
-0.55148005 -0.53366345 -0.5465517 0.14536522 -0.48489696 0.14551301 0.25852257 0.15165253
-0.22459993 -0.2556198 -0.02295818 0.0600547 0.13667148 -0.15498467 -0.017726889 -0.08156919
0.10423447 -0.14600773 0.30968162 -0.23031934 -0.18669434 -0.4553563 0.07978239 -0.2887559
-0.19250615 -0.015592076 -0.010459962 -0.31352097 0.140719 0.6543313 0.1989297 -0.028672883
-0.10443085 -0.47578332 0.06738576 0.27747092 0.021171885 -0.30950785 -0.11394867 0.31577134
0.46720967 -0.29893383 -0.005652306 -0.21694387 -0.25599557 0.31936312 0.29187965 0.35858157
0.42266563 -0.097416215 -0.051143628 0.30732873 0.29445118 -0.25182217 -0.41220537 0.13184264
-0.3681125 -0.15176845 0.46637648 -0.25773683 0.007942405 -0.44364688 0.5569745 -0.44809785
0.024084073 0.014208251 -0.173492 0.2511749 0.01510971 -0.116940275 0.17876112 0.5010404
-0.4078637 0.3538988 0.24037999 0.15106185 0.36216733 -0.34300768 -0.10186669 0.14038885
-0.22528598 0.51365477 0.11050112 -0.049397193 0.10352654 0.12374811 -0.24824384 -0.05021243
0.1536635 -0.28672704 0.22177938 0.055251572 -0.25961414 0.16965325 -0.0670488 0.0009759923

linear1.bias f4 [256]
00000000: 1cec c53e 4ce9 cd3d dd75 a03e c015 55be
00000010: c93f 6d3e 1176 1abd 6e85 40bd 9123 b23d
00000020: f176 e13d a549 05be 2c30 e7bd 7afd 023e
00000030: b1d9 82bc e1c6 d53c a8bf cb3e 8240 ddbe
00000040: db3c 7a3d 8b62 383d ac2d b9bd 4fee 3fbe
00000050: 6899 063e 585e 0fbe 626f cdbc 753f 533d
00000060: de10 1fbe ad4e 8bbe 0248 1fbe bc31 f73e
00000070: 5e2b c2bd ff76 5f3e 2c7d 2d3d caa8 51bd
00000080: ca8d c2be 33ac c13d db76 7ebe 2dae d0bd
00000090: f974 2e3e 5822 10be 2ea7 8b3c b313 02be
000000a0: da10 d63d 5ad1 013f ff05 ab3e 9094 27be
000000b0: c578 e6bd 17d4 d73c d58a d5bc 1dfc 8fbd
000000c0: 2e42 9ebe 6499 e5bc 574e 40be 0dd8 463c
000000d0: a8d1 94be 170c 6fbd 3e00 febd 5262 a3be
000000e0: 1ac9 803d 63c6 eb3e 1ad7 1c3d 072d 833d
000000f0: a9d6 d6bd ce97 543d ba3e c8be 922d 1b3c
00000100: 81df 33be f717 b0bd 8331 8dbd 8a09 9a3e
00000110: 009e 7fbd 34b5 953d b8d1 11be dc7e 293f
00000120: e42c 093e f619 e9bd ac0d a43d 5a0b b0bd
00000130: 63fc 60be 5317 0abe 2d20 153c ad97 75bd
00000140: bc0d 013f 4f0e a7bd 4a6c fdbd 92af a53d
00000150: cb04 b23d 3169 00be ebad 99be fd3f 49bc
00000160: 9c82 37be cb9a 913c f855 b2be 4dfe e0bd
00000170: 3ce8 023e 2e3c 04bd cffd 18be e85c afbd
00000180: 1a25 76be a4f7 a93e 7b91 253e 59b5 4d3c
00000190: 904c 8fbe 628f 38be 2bfe 88bc a8d3 9d3d
000001a0: 93bd 68bb 2975 b0bc 6641 213d bd06 8a3d
000001b0: ef53 9fbd c064 b2be c47d 563e 6023 bc3e
000001c0: dce1 58be f702 8ebe 64c8 fd3d 7222 99bc
000001d0: 5ee2 4dbe d016 b13c 19bf 0cbd f9e7 a1be
000001e0: 0cb8 bebe 63f7 21be d63b 1abe caba 93be
000001f0: 73a5 aa3d 4c3c 48bd 4ba9 89be e4d8 8d3e
00000200: 86ed a33e 24cc 78be e9fc 91bd b222 17be
00000210: a57e 64bc 6566 5f3e 09db 663e 1503 93be
00000220: db99 07be b65c e7bd 0985 7abd a5f3 47be
00000230: f3c1 9bbe cfa4 713d b4f7 3fbd 452b 733d
00000240: 59fc 83be 9dd4 a8be 69a5 613d 6623 1ebe
00000250: c19d 5b3e b16b a3be 95f8 fb3d ce7f c0bd
00000260: 3241 42be be62 05be 158d f1bc 9294 283e
00000270: 79bf 943d cfa5 b9bd da57 363e 4a45 d43e
00000280: c7fb 39be 98e1 59bb 9671 01be 1e55 db3e
00000290: 31b9 9c3e 2cae b7be 5d51 01be 92d5 3abe
000002a0: 9135 18be 5347 dc3e cb85 33bc 1540 83be
000002b0: fef6 c73c 134a 89be 6c21 1bbd ca82 8fbd
000002c0: 0f93 4a3e 78b4 83bd a029 d03d cd9e 9ebe
000002d0: bbcb 38be 0635 fd3c ce2b abbd c817 473d
000002e0: cf52 b83d 8505 eebe 14c4 2bbe fd62 6ebe
000002f0: 0ef5 103e 2f52 c1bd 19fc a83e 815d 08bb
00000300: 42ec 093e f42d 1abe 6295 5fbe 908a 78bd
00000310: efca bdbd 665d 50be 1345 1c3d 396a adbc
00000320: d39a 0e3d 75aa 033d 3266 a03e 28c0 8ebe
00000330: c7f9 fc3e fccf be3c ba9f abbc 3e6c 85bc
00000340: b2d7 52be a78c 003e 1a6a 75be 5493 35bd
00000350: e049 5c3e f6cd f5be 8203 063d 6e4b a2be
00000360: fa1d ef3d 7e3e f23d cc33 d0bd 4ddf 363e
00000370: 7fb9 86be 6898 d9bc 161c 90be 8595 85bd
00000380: d2ee 5dbe 2f46 7bbe 9ef1 b8be 3707 37be
00000390: af33 083f b6e2 973b 06de 9a3d 5a85 70bd
000003a0: 1186 3b3d a582 b6bc 8bd9 503e 6954 3cbe
000003b0: 4791 183e 5944 84bc a0ea ea3d acd5 c9bb
000003c0: a06b 0fbe f691 75be 19d0 a0bd fde7 81be
000003d0: c9c7 eabd 43e8 cdbd dd4c 52be aa1e 013e
000003e0: 9eb8 38be 22d7 85be 6d10 88be 62d1 90be
000003f0: 6c95 d03d 1607 043e 66f4 c3bd 2400 9abe
0.386567 0.100542635 0.31339923 -0.20809078 0.23168863 -0.037710253 -0.04700225 0.0869819
0.110090144 -0.13016374 -0.11288485 0.12792006 -0.015972944 0.02609581 0.3979466 -0.43213278
0.061093193 0.045015853 -0.09041914 -0.18743251 0.13144457 -0.14000833 -0.025077526 0.05157419
-0.15533778 -0.27208462 -0.15554813 0.48280132 -0.09480928 0.21822737 0.0423557 -0.05118636
-0.379988 0.094566725 -0.24850027 -0.101894714 0.17036809 -0.14075601 0.01704749 -0.12702827
0.10452433 0.5071007 0.33403012 -0.16365266 -0.11253504 0.02634625 -0.026067177 -0.07030509
-0.30909866 -0.028027244 -0.18779884 0.012136471 -0.29066205 -0.05836114 -0.1240239 -0.3191095
0.06288357 0.46049795 0.038291074 0.06405073 -0.10490162 0.051902585 -0.39110357 0.009471314
-0.17565729 -0.08598321 -0.06894209 0.30085403 -0.06240654 0.073099524 -0.14240158 0.662092
0.1339603 -0.11381905 0.0801042 -0.08595915 -0.21971278 -0.1348546 0.00910191 -0.059959102
0.5041158 -0.08157026 -0.1237417 0.08090128 0.086923204 -0.12540127 -0.300155 -0.012283322
-0.17920917 0.017774006 -0.34831214 -0.10986004 0.12783903 -0.032283954 -0.1494057 -0.08562642
-0.2403759 0.33196747 0.16168778 0.012555444 -0.279881 -0.18023446 -0.01672276 0.07706386
-0.0035513386 -0.021540241 0.03936901 0.067395665 -0.07779681 -0.3484249 0.20946413 0.3674574
-0.21179909 -0.27736637 0.12391737 -0.018693183 -0.20105883 0.021617323 -0.034361932 -0.31622294
-0.37249792 -0.15817027 -0.15061888 -0.28853446 0.08332338 -0.04888563 -0.26886973 0.27704537
0.32017154 -0.24296623 -0.07128317 -0.14759329 -0.01394621 0.21816404 0.22544493 -0.2871329
-0.13242285 -0.1129698 -0.06116203 -0.19526537 -0.3042141 0.058995064 -0.046867087 0.059367437
-0.25778463 -0.3297471 0.055089388 -0.15443191 0.21446897 -0.319181 0.12303273 -0.09399377
-0.18970183 -0.13025948 -0.029486218 0.16462925 0.07263083 -0.090648286 0.1780695 0.41459113
-0.18162452 -0.0033246037 -0.12640986 0.42838377 0.3061004 -0.3587507 -0.12628694 -0.18245533
-0.14864184 0.43023166 -0.010957192 -0.25634828 0.024409767 -0.26814327 -0.03787367 -0.07007368
0.19782661 -0.06430906 0.10164189 -0.3098053 -0.18046467 0.030909073 -0.083579645 0.048606664
0.090001695 -0.46488586 -0.16774017 -0.23279949 0.14155981 -0.094395034 0.33004835 -0.0020807686
0.13469031 -0.15056592 -0.21834329 -0.06067902 -0.09267222 -0.20348129 0.03815181 -0.021168815
0.03481562 0.032144982 0.3132797 -0.2788098 0.49409315 0.023292534 -0.020950187 -0.016286965
-0.20590094 0.12553655 -0.23966256 -0.044329956 0.21512556 -0.48008698 0.03271819 -0.31698173
0.116756395 0.11828326 -0.101661295 0.1785862 -0.26313397 -0.02656193 -0.28146428 -0.06522659
-0.21673134 -0.24538492 -0.3612184 -0.17873846 0.5320386 0.0046351803 0.07561879 -0.058720924
0.045782153 -0.022279093 0.20395486 -0.18391575 0.14899169 -0.016145872 0.114705324 -0.006159505
-0.140059 -0.23981461 -0.078521915 -0.25372306 -0.11463887 -0.10054066 -0.20537134 0.12609354
-0.18039176 -0.26140696 -0.26575032 -0.28284746 0.1018475 0.12893328 -0.095681 -0.30078232

linear2.weight f4 [3, 256]
00000000: f483 cf3e 4eb2 783e a9b8 853e a381 00bd
00000010: ccb2 c13d f89f 783d a8bf 86be 7402 603e
00000020: 1959 dcbd 8698 4dbe c429 f03c fcf8 c33d
00000030: f57c f6bd c2d6 b63e 9e39 a53e e83f ea3d
00000040: 7f12 32bc 1253 573e 5d51 03be 6c0f 97be
00000050: d99a 95bd b29d c4be 91ac 99be e932 d9be
00000060: 0ad1 63be dd1b 52be 5909 92be faf9 c73e
00000070: 6a71 51be cbd8 23bd 754c 85bd 7675 a33e
00000080: 744a 80bc 9d24 8e3e f924 dcbe d2bd 8d3c
00000090: 1f5f 0ebf 84d1 cc3e 6801 f73d fa00 febe
000000a0: 6de4 ea3e c5a0 9c3e 6554 e03e 4892 463e
000000b0: 09f0 8e3e af7c 64be 5df7 3ebd 5549 5dbe
000000c0: 7aaf 49bd 9dbe 9fbe 05d1 a6bc f18f 2abf
000000d0: 8231 6a3c b3f1 503e f55a c4be 9e69 adbe
000000e0: 52f2 6dbc 991e a43e 7621 8d3e 2459 c83e
000000f0: 7141 16bf d00c ea3d 7487 c9be cee2 af3e
00000100: 35b5 e6be e814 86be 2726 39be cf3f f03e
00000110: 1c18 6ebd 50db 9ab8 5a70 07be be8d 913e
00000120: 9f88 2f3e d2ee 873d 5428 1e3e 8fe5 853d
00000130: 8a20 90be ceb0 e4bd 2e67 31be 2df5 9d3b
00000140: 25f4 d23e 4e80 a1be c078 233c 06bb 0dbe
00000150: b401 ae3e 08fd 12bc bc67 95bc 3258 d9bc
00000160: 8d2a dbbe 6f9c db3e 1084 51be bfcd 9cbd
00000170: a493 97be f97d efbe 83ad babe 8fd9 5cbd
00000180: c5db 0cbc d25a d73e 514f 353e 9fcd 283d
00000190: 7488 12be c051 5ebd a342 c73e 4615 c13e
000001a0: e2f3 5fbd 5187 0dbf 46c7 b0bc 84a8 c8bc
000001b0: a35c 353e fb7a 8fbe aa29 ba3c 67c9 c93e
000001c0: c0e3 04bb 300d 32be e814 abbe bd2f fc3d
000001d0: b87a 2bbd 0812 253e 6448 6abc cb32 ec3d
000001e0: 7757 48be 4575 2cbe b150 8e3c 056c 84be
000001f0: 1550 cbbe 4274 153e 7264 90be e2f4 ef3c
00000200: 189e d13e bde1 1dbe 6432 5b3e ff2b e9bd
00000210: 76b2 2cbe 7e02 423e 1d25 8d3e 3d99 f1be
00000220: a239 22be 7b4f 50be f163 6b3c 9452 02be
00000230: 93d6 6ebe 0747 aa3d 8185 14be b37b 6c3d
00000240: 04b5 9abe 44f0 dd3c 65fc ae3d 9043 e8bd
00000250: 1702 db3e 40df 693b e182 b03e 11a2 5cbe
00000260: 99ea b6be 705e 60bd 1c24 6cbd 9e24 833e
00000270: 1aab 073e f5af 18be d4e7 953e c9f7 b63e
00000280: e080 2ebd dbd6 0fbd a851 00bf 5e3b 553e
00000290: 50d2 7d3e 53a4 3fbe 5c6d c0bd 4216 8bbd
000002a0: 08f6 21be 322b eb3e 0a23 12bd be52 fbbd
000002b0: 7f03 393e 7eb4 b1be 4abe d13e 9634 0a3e
000002c0: b5c7 153e 6b68 b7be 243c f43d fd1e 2cbc
000002d0: c85d d8bc 952d 59be 6ac8 3dbc b4de 8b3d
000002e0: 0d97 313f fc84 6cba f675 89bc 69bf 25be
000002f0: 0308 1cbf d2c2 d83d e035 b93e b003 e13e
00000300: 24a8 83be d82c b3be 4a89 01bf 68a0 53bc
00000310: 8ee1 babe de7f 24be c0ce 6fbe 8da9 db3c
00000320: 0cfb ccbd a555 1bbf 1cb1 ac3e 5962 9fbe
00000330: 091d 943e 4bcc 0fbf 01a9 993d d795 cbbe
00000340: 3208 d1be 2fad bd3e dcdd 9cbd a60c 853e
00000350: 4a26 cd3e b5e4 c7bc 74bb 453e 61e7 bbbe
00000360: c37b afbe 827d 11bd bdd0 f13c 9c59 ef3e
00000370: 20fa b1bd fe04 d2be 981e 83be b0cf 09bd
00000380: e414 e7bc 10cb d0be c800 133c 83d1 61bb
00000390: bd84 9b3e 03aa 8b3e 86c9 cf3e 1336 77be
000003a0: 796f c03e 960f 16be b87b bb3e 5f08 013e
000003b0: 092f 023f 135f 92bd 8836 843e 86db d63d
000003c0: 27a4 11be 8239 80be 64e1 a4be a9c1 f5bd
000003d0: 00fa 40be 3cf2 cebd 28e0 31be f265 d23e
000003e0: 7c2a f8bc d86d 96be 6f83 5dbc 8815 5cbc
000003f0: 90b8 f9be cd1d dc3c 1788 08bf 10a5 38bd
0.4053036 0.24286768 0.26117447 -0.03137363 0.09457931 0.060699433 -0.26318097 0.21875936
-0.107591815 -0.20077714 0.02931679 0.095689744 -0.120355524 0.35710722 0.3227052 0.114379704
-0.010868668 0.21027783 -0.12824006 -0.29503953 -0.073049255 -0.38401562 -0.3001447 -0.42421654
-0.22247711 -0.20518441 -0.28522757 0.39057904 -0.2045342 -0.04000167 -0.06508724 0.31925553
-0.015660502 0.2776231 -0.42996958 0.017302427 -0.55613893 0.40003598 0.12060815 -0.4961012
0.458774 0.30591407 0.43814388 0.1939174 0.27917507 -0.22313188 -0.046622623 -0.21610005
-0.049239613 -0.31200114 -0.02036334 -0.6662589 0.01429403 0.20404701 -0.38350645 -0.33869642
-0.014523106 0.32054594 0.2756459 0.3913051 -0.58693606 0.11428225 -0.39361155 0.34352726
-0.45060125 -0.26187825 -0.1808096 0.46923682 -0.05812846 -7.3841424e-05 -0.13226452 0.28428453
0.1714196 0.06637348 0.15445071 0.065379255 -0.28149825 -0.11166535 -0.17324516 0.004820487
0.41201892 -0.315432 0.0099775195 -0.13840875 0.33985674 -0.00897146 -0.018237941 -0.026531313
-0.428059 0.42892787 -0.20460534 -0.076564305 -0.29604828 -0.46775797 -0.36460504 -0.053918418
-0.008597319 0.42061478 0.17706038 0.04121172 -0.14309865 -0.05427718 0.38918027 0.37711543
-0.054675944 -0.552846 -0.021579396 -0.024494417 0.1771112 -0.28023514 0.022724945 0.3941147
-0.002027735 -0.17387843 -0.33414388 0.12313793 -0.04186508 0.1612016 -0.014299486 0.115331255
-0.19564615 -0.1684161 0.017372461 -0.25863662 -0.39709535 0.1459513 -0.28201634 0.029291574
0.40940928 -0.15418144 0.21405941 -0.11385345 -0.16864952 0.18946263 0.27567378 -0.47187224
-0.15842298 -0.2034282 0.01436709 -0.12726814 -0.23324041 0.08314329 -0.14504053 0.057735156
-0.3021623 0.027092107 0.08544234 -0.113410115 0.42775032 0.0035686046 0.34474853 -0.21546198
-0.3572586 -0.054777563 -0.057651624 0.25613874 0.13248864 -0.14910872 0.29278433 0.3573592
-0.042603374 -0.03511701 -0.501246 0.20823428 0.24787259 -0.18715028 -0.09395859 -0.06791355
-0.1581651 0.45931393 -0.035677947 -0.12271641 0.1806774 -0.34708017 0.40965492 0.13496622
0.14626963 -0.35821852 0.119255334 -0.010505435 -0.026411906 -0.21208794 -0.011583427 0.068295866
0.6937111 -0.0009022502 -0.016779881 -0.16186298 -0.60949725 0.10584034 0.36173916 0.43948126
-0.2571422 -0.3499515 -0.5060011 -0.012916662 -0.3650021 -0.16064402 -0.23418713 0.026814247
-0.10008821 -0.6067756 0.33728874 -0.3112972 0.28928402 -0.561711 0.07502938 -0.39762756
-0.40826565 0.3704619 -0.07659504 0.25986212 0.40068275 -0.024401048 0.19309789 -0.36699966
-0.3427411 -0.035520084 0.02951848 0.46748054 -0.08690286 -0.41019434 -0.2560928 -0.03364533
-0.028208204 -0.40779924 0.008972354 -0.0034457154 0.3037471 0.27278146 0.40583438 -0.24141721
0.37585047 -0.14654383 0.36617827 0.1260085 0.5085302 -0.0714704 0.25822854 0.104910895
-0.14222775 -0.25043875 -0.3220321 -0.11999828 -0.18845367 -0.10104796 -0.17370665 0.41093403
-0.030293696 -0.2938068 -0.013520106 -0.013432868 -0.48773623 0.026869679 -0.53332657 -0.04507929

linear2.bias f4 [3]
00000000: 8222 e63d 2d4b f33c a0f1 123d
0.112370506 0.029698933 0.035874963
